…
[ INFO : 2019-12-23 15:59:50,432 ] -                       '| splice-feats --left-context={} --right-context={} '
[ INFO : 2019-12-23 15:59:50,433 ] -                       'ark:- ark:- |',
[ INFO : 2019-12-23 15:59:50,433 ] -  'train_label_stream': 'copy-int-vector '
[ INFO : 2019-12-23 15:59:50,433 ] -                        'ark:/mnt/lustre/sjtu/home/xnx98/zkz01/timit/data_for_brainlike/ali_train.txt '
[ INFO : 2019-12-23 15:59:50,433 ] -                        'ark:- |'}
[ INFO : 2019-12-23 15:59:57,901 ] - <== Encoder ==>
[ INFO : 2019-12-23 15:59:57,901 ] - FcEncoder(
[ INFO : 2019-12-23 15:59:57,901 ] -   (model): Sequential(
[ INFO : 2019-12-23 15:59:57,901 ] -     (0): Linear(in_features=195, out_features=256, bias=True)
[ INFO : 2019-12-23 15:59:57,901 ] -     (1): ReLU()
[ INFO : 2019-12-23 15:59:57,901 ] -     (2): Linear(in_features=256, out_features=128, bias=True)
[ INFO : 2019-12-23 15:59:57,901 ] -     (3): ReLU()
[ INFO : 2019-12-23 15:59:57,902 ] -     (4): Linear(in_features=128, out_features=64, bias=True)
[ INFO : 2019-12-23 15:59:57,902 ] -   )
[ INFO : 2019-12-23 15:59:57,902 ] - )
[ INFO : 2019-12-23 15:59:57,902 ] - <== Classifier ==>
[ INFO : 2019-12-23 15:59:57,902 ] - dnn_classifier(
[ INFO : 2019-12-23 15:59:57,902 ] -   (model): Sequential(
[ INFO : 2019-12-23 15:59:57,902 ] -     (0): Linear(in_features=64, out_features=128, bias=True)
[ INFO : 2019-12-23 15:59:57,902 ] -     (1): BatchNorm1d(128, eps=1e-05, momentum=0.1, affine=True, track_running_stats=True)
[ INFO : 2019-12-23 15:59:57,902 ] -     (2): ReLU()
[ INFO : 2019-12-23 15:59:57,902 ] -     (3): Linear(in_features=128, out_features=256, bias=True)
[ INFO : 2019-12-23 15:59:57,902 ] -     (4): BatchNorm1d(256, eps=1e-05, momentum=0.1, affine=True, track_running_stats=True)
[ INFO : 2019-12-23 15:59:57,902 ] -     (5): ReLU()
[ INFO : 2019-12-23 15:59:57,902 ] -     (6): Linear(in_features=256, out_features=512, bias=True)
[ INFO : 2019-12-23 15:59:57,902 ] -     (7): BatchNorm1d(512, eps=1e-05, momentum=0.1, affine=True, track_running_stats=True)
[ INFO : 2019-12-23 15:59:57,902 ] -     (8): ReLU()
[ INFO : 2019-12-23 15:59:57,902 ] -     (9): Linear(in_features=512, out_features=256, bias=True)
[ INFO : 2019-12-23 15:59:57,902 ] -     (10): BatchNorm1d(256, eps=1e-05, momentum=0.1, affine=True, track_running_stats=True)
[ INFO : 2019-12-23 15:59:57,902 ] -     (11): ReLU()
[ INFO : 2019-12-23 15:59:57,902 ] -     (12): Linear(in_features=256, out_features=128, bias=True)
[ INFO : 2019-12-23 15:59:57,902 ] -     (13): BatchNorm1d(128, eps=1e-05, momentum=0.1, affine=True, track_running_stats=True)
[ INFO : 2019-12-23 15:59:57,902 ] -     (14): ReLU()
[ INFO : 2019-12-23 15:59:57,902 ] -     (15): Linear(in_features=128, out_features=64, bias=True)
[ INFO : 2019-12-23 15:59:57,902 ] -     (16): BatchNorm1d(64, eps=1e-05, momentum=0.1, affine=True, track_running_stats=True)
[ INFO : 2019-12-23 15:59:57,903 ] -     (17): ReLU()
[ INFO : 2019-12-23 15:59:57,903 ] -     (18): Linear(in_features=64, out_features=51, bias=True)
[ INFO : 2019-12-23 15:59:57,903 ] -   )
[ INFO : 2019-12-23 15:59:57,903 ] - )
[ INFO : 2019-12-23 16:00:00,481 ] - <== Training Started ==>
[ INFO : 2019-12-23 16:00:00,481 ] - +-----------+-----------+-----------+
[ INFO : 2019-12-23 16:00:00,481 ] - |   Epoch   | Loss(CV)  |  Acc(CV)  |
[ INFO : 2019-12-23 16:00:00,481 ] - +-----------+-----------+-----------+
…
