…
[ INFO : 2019-12-23 17:49:57,908 ] -                       '--left-context={} --right-context={} ark:- ark:-|',
[ INFO : 2019-12-23 17:49:57,908 ] -  'train_label_stream': 'copy-int-vector '
[ INFO : 2019-12-23 17:49:57,908 ] -                        'ark:/mnt/lustre/sjtu/home/xnx98/zkz01/timit/data_for_brainlike/ali_train.txt '
[ INFO : 2019-12-23 17:49:57,908 ] -                        'ark:- |'}
[ INFO : 2019-12-23 17:50:19,028 ] - <== Encoder ==>
[ INFO : 2019-12-23 17:50:19,029 ] - FcEncoder(
[ INFO : 2019-12-23 17:50:19,029 ] -   (model): Sequential(
[ INFO : 2019-12-23 17:50:19,029 ] -     (0): Linear(in_features=400, out_features=256, bias=True)
[ INFO : 2019-12-23 17:50:19,029 ] -     (1): ReLU()
[ INFO : 2019-12-23 17:50:19,029 ] -     (2): Linear(in_features=256, out_features=128, bias=True)
[ INFO : 2019-12-23 17:50:19,029 ] -     (3): ReLU()
[ INFO : 2019-12-23 17:50:19,029 ] -     (4): Linear(in_features=128, out_features=64, bias=True)
[ INFO : 2019-12-23 17:50:19,029 ] -   )
[ INFO : 2019-12-23 17:50:19,029 ] - )
[ INFO : 2019-12-23 17:50:19,029 ] - <== Classifier ==>
[ INFO : 2019-12-23 17:50:19,029 ] - dnn_classifier(
[ INFO : 2019-12-23 17:50:19,029 ] -   (model): Sequential(
[ INFO : 2019-12-23 17:50:19,029 ] -     (0): Linear(in_features=64, out_features=128, bias=True)
[ INFO : 2019-12-23 17:50:19,029 ] -     (1): BatchNorm1d(128, eps=1e-05, momentum=0.1, affine=True, track_running_stats=True)
[ INFO : 2019-12-23 17:50:19,029 ] -     (2): ReLU()
[ INFO : 2019-12-23 17:50:19,030 ] -     (3): Linear(in_features=128, out_features=256, bias=True)
[ INFO : 2019-12-23 17:50:19,030 ] -     (4): BatchNorm1d(256, eps=1e-05, momentum=0.1, affine=True, track_running_stats=True)
[ INFO : 2019-12-23 17:50:19,030 ] -     (5): ReLU()
[ INFO : 2019-12-23 17:50:19,030 ] -     (6): Linear(in_features=256, out_features=512, bias=True)
[ INFO : 2019-12-23 17:50:19,030 ] -     (7): BatchNorm1d(512, eps=1e-05, momentum=0.1, affine=True, track_running_stats=True)
[ INFO : 2019-12-23 17:50:19,030 ] -     (8): ReLU()
[ INFO : 2019-12-23 17:50:19,030 ] -     (9): Linear(in_features=512, out_features=256, bias=True)
[ INFO : 2019-12-23 17:50:19,030 ] -     (10): BatchNorm1d(256, eps=1e-05, momentum=0.1, affine=True, track_running_stats=True)
[ INFO : 2019-12-23 17:50:19,030 ] -     (11): ReLU()
[ INFO : 2019-12-23 17:50:19,030 ] -     (12): Linear(in_features=256, out_features=128, bias=True)
[ INFO : 2019-12-23 17:50:19,030 ] -     (13): BatchNorm1d(128, eps=1e-05, momentum=0.1, affine=True, track_running_stats=True)
[ INFO : 2019-12-23 17:50:19,030 ] -     (14): ReLU()
[ INFO : 2019-12-23 17:50:19,030 ] -     (15): Linear(in_features=128, out_features=64, bias=True)
[ INFO : 2019-12-23 17:50:19,030 ] -     (16): BatchNorm1d(64, eps=1e-05, momentum=0.1, affine=True, track_running_stats=True)
[ INFO : 2019-12-23 17:50:19,030 ] -     (17): ReLU()
[ INFO : 2019-12-23 17:50:19,030 ] -     (18): Linear(in_features=64, out_features=51, bias=True)
[ INFO : 2019-12-23 17:50:19,030 ] -   )
[ INFO : 2019-12-23 17:50:19,030 ] - )
[ INFO : 2019-12-23 17:50:35,293 ] - <== Training Started ==>
[ INFO : 2019-12-23 17:50:35,293 ] - +-----------+-----------+-----------+
[ INFO : 2019-12-23 17:50:35,293 ] - |   Epoch   | Loss(CV)  |  Acc(CV)  |
[ INFO : 2019-12-23 17:50:35,293 ] - +-----------+-----------+-----------+
…
