…
[ INFO : 2019-12-23 14:00:27,472 ] -                       '| splice-feats --left-context={} --right-context={} '
[ INFO : 2019-12-23 14:00:27,472 ] -                       'ark:- ark:- |',
[ INFO : 2019-12-23 14:00:27,472 ] -  'train_label_stream': 'copy-int-vector '
[ INFO : 2019-12-23 14:00:27,472 ] -                        'ark:/mnt/lustre/sjtu/home/xnx98/zkz01/timit/data_for_brainlike/ali_train.txt '
[ INFO : 2019-12-23 14:00:27,472 ] -                        'ark:- |'}
[ INFO : 2019-12-23 14:00:57,053 ] - <== Encoder ==>
[ INFO : 2019-12-23 14:00:57,054 ] - FcEncoder(
[ INFO : 2019-12-23 14:00:57,054 ] -   (model): Sequential(
[ INFO : 2019-12-23 14:00:57,054 ] -     (0): Linear(in_features=195, out_features=256, bias=True)
[ INFO : 2019-12-23 14:00:57,054 ] -     (1): ReLU()
[ INFO : 2019-12-23 14:00:57,054 ] -     (2): Linear(in_features=256, out_features=128, bias=True)
[ INFO : 2019-12-23 14:00:57,054 ] -     (3): ReLU()
[ INFO : 2019-12-23 14:00:57,054 ] -     (4): Linear(in_features=128, out_features=64, bias=True)
[ INFO : 2019-12-23 14:00:57,054 ] -   )
[ INFO : 2019-12-23 14:00:57,054 ] - )
[ INFO : 2019-12-23 14:00:57,054 ] - <== Classifier ==>
[ INFO : 2019-12-23 14:00:57,054 ] - dnn_classifier(
[ INFO : 2019-12-23 14:00:57,054 ] -   (model): Sequential(
[ INFO : 2019-12-23 14:00:57,054 ] -     (0): Linear(in_features=64, out_features=128, bias=True)
[ INFO : 2019-12-23 14:00:57,054 ] -     (1): BatchNorm1d(128, eps=1e-05, momentum=0.1, affine=True, track_running_stats=True)
[ INFO : 2019-12-23 14:00:57,054 ] -     (2): ReLU()
[ INFO : 2019-12-23 14:00:57,054 ] -     (3): Linear(in_features=128, out_features=256, bias=True)
[ INFO : 2019-12-23 14:00:57,054 ] -     (4): BatchNorm1d(256, eps=1e-05, momentum=0.1, affine=True, track_running_stats=True)
[ INFO : 2019-12-23 14:00:57,054 ] -     (5): ReLU()
[ INFO : 2019-12-23 14:00:57,054 ] -     (6): Linear(in_features=256, out_features=512, bias=True)
[ INFO : 2019-12-23 14:00:57,054 ] -     (7): BatchNorm1d(512, eps=1e-05, momentum=0.1, affine=True, track_running_stats=True)
[ INFO : 2019-12-23 14:00:57,054 ] -     (8): ReLU()
[ INFO : 2019-12-23 14:00:57,055 ] -     (9): Linear(in_features=512, out_features=256, bias=True)
[ INFO : 2019-12-23 14:00:57,055 ] -     (10): BatchNorm1d(256, eps=1e-05, momentum=0.1, affine=True, track_running_stats=True)
[ INFO : 2019-12-23 14:00:57,055 ] -     (11): ReLU()
[ INFO : 2019-12-23 14:00:57,055 ] -     (12): Linear(in_features=256, out_features=128, bias=True)
[ INFO : 2019-12-23 14:00:57,055 ] -     (13): BatchNorm1d(128, eps=1e-05, momentum=0.1, affine=True, track_running_stats=True)
[ INFO : 2019-12-23 14:00:57,055 ] -     (14): ReLU()
[ INFO : 2019-12-23 14:00:57,055 ] -     (15): Linear(in_features=128, out_features=64, bias=True)
[ INFO : 2019-12-23 14:00:57,055 ] -     (16): BatchNorm1d(64, eps=1e-05, momentum=0.1, affine=True, track_running_stats=True)
[ INFO : 2019-12-23 14:00:57,055 ] -     (17): ReLU()
[ INFO : 2019-12-23 14:00:57,055 ] -     (18): Linear(in_features=64, out_features=51, bias=True)
[ INFO : 2019-12-23 14:00:57,055 ] -   )
[ INFO : 2019-12-23 14:00:57,055 ] - )
[ INFO : 2019-12-23 14:05:55,372 ] - Storing data at: exp/dnn_random_212
[ INFO : 2019-12-23 14:05:55,391 ] - <== Passed Arguments ==>
[ INFO : 2019-12-23 14:05:55,391 ] - {'classifier': 'dnn_classifier',
[ INFO : 2019-12-23 14:05:55,391 ] -  'classifier_args': {'hid_dims': [128, 256, 512, 256, 128, 64], 'num_cls': 51},
…
