…
[ INFO : 2019-12-23 19:55:11,215 ] -                       'ark:- ark:-|',
[ INFO : 2019-12-23 19:55:11,215 ] -  'train_label_stream': 'copy-int-vector '
[ INFO : 2019-12-23 19:55:11,215 ] -                        'ark:/mnt/lustre/sjtu/home/xnx98/zkz01/timit/data_for_brainlike/ali_train.txt '
[ INFO : 2019-12-23 19:55:11,215 ] -                        'ark:- |'}
[ INFO : 2019-12-23 19:55:32,626 ] - <== Model ==>
[ INFO : 2019-12-23 19:55:32,626 ] - AutoEncoder(
[ INFO : 2019-12-23 19:55:32,626 ] -   (encoder): FcEncoder(
[ INFO : 2019-12-23 19:55:32,626 ] -     (model): Sequential(
[ INFO : 2019-12-23 19:55:32,627 ] -       (0): Linear(in_features=195, out_features=256, bias=True)
[ INFO : 2019-12-23 19:55:32,627 ] -       (1): BatchNorm1d(256, eps=1e-05, momentum=0.1, affine=True, track_running_stats=True)
[ INFO : 2019-12-23 19:55:32,627 ] -       (2): ReLU()
[ INFO : 2019-12-23 19:55:32,627 ] -       (3): Linear(in_features=256, out_features=128, bias=True)
[ INFO : 2019-12-23 19:55:32,627 ] -       (4): BatchNorm1d(128, eps=1e-05, momentum=0.1, affine=True, track_running_stats=True)
[ INFO : 2019-12-23 19:55:32,627 ] -       (5): ReLU()
[ INFO : 2019-12-23 19:55:32,627 ] -       (6): Linear(in_features=128, out_features=64, bias=True)
[ INFO : 2019-12-23 19:55:32,627 ] -     )
[ INFO : 2019-12-23 19:55:32,628 ] -   )
[ INFO : 2019-12-23 19:55:32,628 ] -   (decoder): FcDecoder(
[ INFO : 2019-12-23 19:55:32,628 ] -     (model): Sequential(
[ INFO : 2019-12-23 19:55:32,628 ] -       (0): Linear(in_features=64, out_features=128, bias=True)
[ INFO : 2019-12-23 19:55:32,628 ] -       (1): BatchNorm1d(128, eps=1e-05, momentum=0.1, affine=True, track_running_stats=True)
[ INFO : 2019-12-23 19:55:32,628 ] -       (2): ReLU()
[ INFO : 2019-12-23 19:55:32,628 ] -       (3): Linear(in_features=128, out_features=256, bias=True)
[ INFO : 2019-12-23 19:55:32,628 ] -       (4): BatchNorm1d(256, eps=1e-05, momentum=0.1, affine=True, track_running_stats=True)
[ INFO : 2019-12-23 19:55:32,628 ] -       (5): ReLU()
[ INFO : 2019-12-23 19:55:32,629 ] -       (6): Linear(in_features=256, out_features=195, bias=True)
[ INFO : 2019-12-23 19:55:32,629 ] -       (7): BatchNorm1d(195, eps=1e-05, momentum=0.1, affine=True, track_running_stats=True)
[ INFO : 2019-12-23 19:55:32,629 ] -       (8): ReLU()
[ INFO : 2019-12-23 19:55:32,629 ] -     )
[ INFO : 2019-12-23 19:55:32,629 ] -   )
[ INFO : 2019-12-23 19:55:32,629 ] -   (criterion): MSELoss()
[ INFO : 2019-12-23 19:55:32,629 ] - )
[ INFO : 2019-12-23 19:56:01,949 ] - <== Training Started ==>
[ INFO : 2019-12-23 19:56:01,949 ] - +-----------+-----------+-----------+
…
[ INFO : 2019-12-23 20:18:37,523 ] -                       'ark:- ark:-|',
[ INFO : 2019-12-23 20:18:37,524 ] -  'train_label_stream': 'copy-int-vector '
[ INFO : 2019-12-23 20:18:37,524 ] -                        'ark:/mnt/lustre/sjtu/home/xnx98/zkz01/timit/data_for_brainlike/ali_train.txt '
[ INFO : 2019-12-23 20:18:37,524 ] -                        'ark:- |'}
[ INFO : 2019-12-23 20:18:46,571 ] - <== Model ==>
[ INFO : 2019-12-23 20:18:46,571 ] - AutoEncoder(
[ INFO : 2019-12-23 20:18:46,571 ] -   (encoder): FcEncoder(
[ INFO : 2019-12-23 20:18:46,571 ] -     (model): Sequential(
[ INFO : 2019-12-23 20:18:46,572 ] -       (0): Linear(in_features=195, out_features=256, bias=True)
[ INFO : 2019-12-23 20:18:46,572 ] -       (1): BatchNorm1d(256, eps=1e-05, momentum=0.1, affine=True, track_running_stats=True)
[ INFO : 2019-12-23 20:18:46,572 ] -       (2): ReLU()
[ INFO : 2019-12-23 20:18:46,572 ] -       (3): Linear(in_features=256, out_features=128, bias=True)
[ INFO : 2019-12-23 20:18:46,572 ] -       (4): BatchNorm1d(128, eps=1e-05, momentum=0.1, affine=True, track_running_stats=True)
[ INFO : 2019-12-23 20:18:46,572 ] -       (5): ReLU()
[ INFO : 2019-12-23 20:18:46,572 ] -       (6): Linear(in_features=128, out_features=64, bias=True)
[ INFO : 2019-12-23 20:18:46,572 ] -     )
[ INFO : 2019-12-23 20:18:46,572 ] -   )
[ INFO : 2019-12-23 20:18:46,572 ] -   (decoder): FcDecoder(
[ INFO : 2019-12-23 20:18:46,572 ] -     (model): Sequential(
[ INFO : 2019-12-23 20:18:46,572 ] -       (0): Linear(in_features=64, out_features=128, bias=True)
[ INFO : 2019-12-23 20:18:46,572 ] -       (1): BatchNorm1d(128, eps=1e-05, momentum=0.1, affine=True, track_running_stats=True)
[ INFO : 2019-12-23 20:18:46,572 ] -       (2): ReLU()
[ INFO : 2019-12-23 20:18:46,572 ] -       (3): Linear(in_features=128, out_features=256, bias=True)
[ INFO : 2019-12-23 20:18:46,572 ] -       (4): BatchNorm1d(256, eps=1e-05, momentum=0.1, affine=True, track_running_stats=True)
[ INFO : 2019-12-23 20:18:46,572 ] -       (5): ReLU()
[ INFO : 2019-12-23 20:18:46,572 ] -       (6): Linear(in_features=256, out_features=195, bias=True)
[ INFO : 2019-12-23 20:18:46,572 ] -     )
[ INFO : 2019-12-23 20:18:46,572 ] -   )
[ INFO : 2019-12-23 20:18:46,572 ] -   (criterion): MSELoss()
[ INFO : 2019-12-23 20:18:46,572 ] - )
[ INFO : 2019-12-23 20:19:06,483 ] - <== Training Started ==>
[ INFO : 2019-12-23 20:19:06,484 ] - +-----------+-----------+-----------+
[ INFO : 2019-12-23 20:19:06,484 ] - |   Epoch   |  Loss(T)  | Loss(CV)  |
…
