…
[ INFO : 2019-12-23 21:35:31,370 ] -                       '| splice-feats --left-context={} --right-context={} '
[ INFO : 2019-12-23 21:35:31,370 ] -                       'ark:- ark:- |',
[ INFO : 2019-12-23 21:35:31,370 ] -  'train_label_stream': 'copy-int-vector '
[ INFO : 2019-12-23 21:35:31,370 ] -                        'ark:/mnt/lustre/sjtu/home/xnx98/zkz01/timit/data_for_brainlike/ali_train.txt '
[ INFO : 2019-12-23 21:35:31,370 ] -                        'ark:- |'}
[ INFO : 2019-12-23 21:35:48,905 ] - <== Encoder ==>
[ INFO : 2019-12-23 21:35:48,906 ] - FcEncoder(
[ INFO : 2019-12-23 21:35:48,906 ] -   (model): Sequential(
[ INFO : 2019-12-23 21:35:48,906 ] -     (0): Linear(in_features=195, out_features=256, bias=True)
[ INFO : 2019-12-23 21:35:48,906 ] -     (1): BatchNorm1d(256, eps=1e-05, momentum=0.1, affine=True, track_running_stats=True)
[ INFO : 2019-12-23 21:35:48,906 ] -     (2): ReLU()
[ INFO : 2019-12-23 21:35:48,906 ] -     (3): Linear(in_features=256, out_features=128, bias=True)
[ INFO : 2019-12-23 21:35:48,906 ] -     (4): BatchNorm1d(128, eps=1e-05, momentum=0.1, affine=True, track_running_stats=True)
[ INFO : 2019-12-23 21:35:48,906 ] -     (5): ReLU()
[ INFO : 2019-12-23 21:35:48,906 ] -     (6): Linear(in_features=128, out_features=64, bias=True)
[ INFO : 2019-12-23 21:35:48,906 ] -   )
[ INFO : 2019-12-23 21:35:48,906 ] - )
[ INFO : 2019-12-23 21:35:48,906 ] - <== Classifier ==>
[ INFO : 2019-12-23 21:35:48,906 ] - dnn_classifier(
[ INFO : 2019-12-23 21:35:48,906 ] -   (model): Sequential(
[ INFO : 2019-12-23 21:35:48,906 ] -     (0): Linear(in_features=64, out_features=128, bias=True)
[ INFO : 2019-12-23 21:35:48,906 ] -     (1): BatchNorm1d(128, eps=1e-05, momentum=0.1, affine=True, track_running_stats=True)
[ INFO : 2019-12-23 21:35:48,906 ] -     (2): ReLU()
[ INFO : 2019-12-23 21:35:48,906 ] -     (3): Linear(in_features=128, out_features=256, bias=True)
[ INFO : 2019-12-23 21:35:48,906 ] -     (4): BatchNorm1d(256, eps=1e-05, momentum=0.1, affine=True, track_running_stats=True)
[ INFO : 2019-12-23 21:35:48,906 ] -     (5): ReLU()
[ INFO : 2019-12-23 21:35:48,907 ] -     (6): Linear(in_features=256, out_features=512, bias=True)
[ INFO : 2019-12-23 21:35:48,907 ] -     (7): BatchNorm1d(512, eps=1e-05, momentum=0.1, affine=True, track_running_stats=True)
[ INFO : 2019-12-23 21:35:48,907 ] -     (8): ReLU()
[ INFO : 2019-12-23 21:35:48,907 ] -     (9): Linear(in_features=512, out_features=256, bias=True)
[ INFO : 2019-12-23 21:35:48,907 ] -     (10): BatchNorm1d(256, eps=1e-05, momentum=0.1, affine=True, track_running_stats=True)
[ INFO : 2019-12-23 21:35:48,907 ] -     (11): ReLU()
[ INFO : 2019-12-23 21:35:48,907 ] -     (12): Linear(in_features=256, out_features=128, bias=True)
[ INFO : 2019-12-23 21:35:48,907 ] -     (13): BatchNorm1d(128, eps=1e-05, momentum=0.1, affine=True, track_running_stats=True)
[ INFO : 2019-12-23 21:35:48,907 ] -     (14): ReLU()
[ INFO : 2019-12-23 21:35:48,907 ] -     (15): Linear(in_features=128, out_features=64, bias=True)
[ INFO : 2019-12-23 21:35:48,907 ] -     (16): BatchNorm1d(64, eps=1e-05, momentum=0.1, affine=True, track_running_stats=True)
[ INFO : 2019-12-23 21:35:48,907 ] -     (17): ReLU()
[ INFO : 2019-12-23 21:35:48,907 ] -     (18): Linear(in_features=64, out_features=51, bias=True)
[ INFO : 2019-12-23 21:35:48,907 ] -   )
[ INFO : 2019-12-23 21:35:48,907 ] - )
[ INFO : 2019-12-23 21:35:59,227 ] - <== Training Started ==>
[ INFO : 2019-12-23 21:35:59,228 ] - +-----------+-----------+-----------+
[ INFO : 2019-12-23 21:35:59,228 ] - |   Epoch   | Loss(CV)  |  Acc(CV)  |
[ INFO : 2019-12-23 21:35:59,228 ] - +-----------+-----------+-----------+
…
