…
LOG (copy-int-vector[5.5.537-e2c0]:main():copy-int-vector.cc:83) Copied 192 vectors of int32.
copy-int-vector ark:/mnt/lustre/sjtu/home/xnx98/zkz01/timit/data_for_brainlike/ali_test.txt ark:- 
LOG (copy-int-vector[5.5.537-e2c0]:main():copy-int-vector.cc:83) Copied 192 vectors of int32.
copy-int-vector ark:/mnt/lustre/sjtu/home/xnx98/zkz01/timit/data_for_brainlike/ali_test.txt ark:- 
LOG (copy-int-vector[5.5.537-e2c0]:main():copy-int-vector.cc:83) Copied 192 vectors of int32.
[ INFO : 2019-12-23 16:56:21,457 ] - <== Encoder ==>
[ INFO : 2019-12-23 16:56:21,457 ] - FcEncoder(
[ INFO : 2019-12-23 16:56:21,458 ] -   (model): Sequential(
[ INFO : 2019-12-23 16:56:21,458 ] -     (0): Linear(in_features=400, out_features=256, bias=True)
[ INFO : 2019-12-23 16:56:21,458 ] -     (1): ReLU()
[ INFO : 2019-12-23 16:56:21,458 ] -     (2): Linear(in_features=256, out_features=128, bias=True)
[ INFO : 2019-12-23 16:56:21,458 ] -     (3): ReLU()
[ INFO : 2019-12-23 16:56:21,458 ] -     (4): Linear(in_features=128, out_features=64, bias=True)
[ INFO : 2019-12-23 16:56:21,458 ] -   )
[ INFO : 2019-12-23 16:56:21,458 ] - )
[ INFO : 2019-12-23 16:56:21,458 ] - <== Classifier ==>
[ INFO : 2019-12-23 16:56:21,458 ] - dnn_classifier(
[ INFO : 2019-12-23 16:56:21,459 ] -   (model): Sequential(
[ INFO : 2019-12-23 16:56:21,459 ] -     (0): Linear(in_features=64, out_features=128, bias=True)
[ INFO : 2019-12-23 16:56:21,459 ] -     (1): BatchNorm1d(128, eps=1e-05, momentum=0.1, affine=True, track_running_stats=True)
[ INFO : 2019-12-23 16:56:21,459 ] -     (2): ReLU()
[ INFO : 2019-12-23 16:56:21,459 ] -     (3): Linear(in_features=128, out_features=256, bias=True)
[ INFO : 2019-12-23 16:56:21,459 ] -     (4): BatchNorm1d(256, eps=1e-05, momentum=0.1, affine=True, track_running_stats=True)
[ INFO : 2019-12-23 16:56:21,459 ] -     (5): ReLU()
[ INFO : 2019-12-23 16:56:21,459 ] -     (6): Linear(in_features=256, out_features=512, bias=True)
[ INFO : 2019-12-23 16:56:21,459 ] -     (7): BatchNorm1d(512, eps=1e-05, momentum=0.1, affine=True, track_running_stats=True)
[ INFO : 2019-12-23 16:56:21,459 ] -     (8): ReLU()
[ INFO : 2019-12-23 16:56:21,459 ] -     (9): Linear(in_features=512, out_features=256, bias=True)
[ INFO : 2019-12-23 16:56:21,459 ] -     (10): BatchNorm1d(256, eps=1e-05, momentum=0.1, affine=True, track_running_stats=True)
[ INFO : 2019-12-23 16:56:21,460 ] -     (11): ReLU()
[ INFO : 2019-12-23 16:56:21,460 ] -     (12): Linear(in_features=256, out_features=128, bias=True)
[ INFO : 2019-12-23 16:56:21,460 ] -     (13): BatchNorm1d(128, eps=1e-05, momentum=0.1, affine=True, track_running_stats=True)
[ INFO : 2019-12-23 16:56:21,460 ] -     (14): ReLU()
[ INFO : 2019-12-23 16:56:21,460 ] -     (15): Linear(in_features=128, out_features=64, bias=True)
[ INFO : 2019-12-23 16:56:21,460 ] -     (16): BatchNorm1d(64, eps=1e-05, momentum=0.1, affine=True, track_running_stats=True)
[ INFO : 2019-12-23 16:56:21,460 ] -     (17): ReLU()
[ INFO : 2019-12-23 16:56:21,460 ] -     (18): Linear(in_features=64, out_features=51, bias=True)
[ INFO : 2019-12-23 16:56:21,460 ] -   )
[ INFO : 2019-12-23 16:56:21,460 ] - )
[ INFO : 2019-12-23 16:56:25,733 ] - Engine run starting with max_epochs=200.
[ INFO : 2019-12-23 16:56:25,733 ] - <== Training Started ==>
[ INFO : 2019-12-23 16:56:25,733 ] - +-----------+-----------+-----------+
[ INFO : 2019-12-23 16:56:25,733 ] - |   Epoch   | Loss(CV)  |  Acc(CV)  |
…
