…
LOG (copy-int-vector[5.5.537-e2c0]:main():copy-int-vector.cc:83) Copied 192 vectors of int32.
copy-int-vector ark:/mnt/lustre/sjtu/home/xnx98/zkz01/timit/data_for_brainlike/ali_test.txt ark:- 
LOG (copy-int-vector[5.5.537-e2c0]:main():copy-int-vector.cc:83) Copied 192 vectors of int32.
copy-int-vector ark:/mnt/lustre/sjtu/home/xnx98/zkz01/timit/data_for_brainlike/ali_test.txt ark:- 
LOG (copy-int-vector[5.5.537-e2c0]:main():copy-int-vector.cc:83) Copied 192 vectors of int32.
[ INFO : 2019-12-23 14:00:57,053 ] - <== Encoder ==>
[ INFO : 2019-12-23 14:00:57,054 ] - FcEncoder(
[ INFO : 2019-12-23 14:00:57,054 ] -   (model): Sequential(
[ INFO : 2019-12-23 14:00:57,054 ] -     (0): Linear(in_features=195, out_features=256, bias=True)
[ INFO : 2019-12-23 14:00:57,054 ] -     (1): ReLU()
[ INFO : 2019-12-23 14:00:57,054 ] -     (2): Linear(in_features=256, out_features=128, bias=True)
[ INFO : 2019-12-23 14:00:57,054 ] -     (3): ReLU()
[ INFO : 2019-12-23 14:00:57,054 ] -     (4): Linear(in_features=128, out_features=64, bias=True)
[ INFO : 2019-12-23 14:00:57,054 ] -   )
[ INFO : 2019-12-23 14:00:57,054 ] - )
[ INFO : 2019-12-23 14:00:57,054 ] - <== Classifier ==>
[ INFO : 2019-12-23 14:00:57,054 ] - dnn_classifier(
[ INFO : 2019-12-23 14:00:57,054 ] -   (model): Sequential(
[ INFO : 2019-12-23 14:00:57,054 ] -     (0): Linear(in_features=64, out_features=128, bias=True)
[ INFO : 2019-12-23 14:00:57,054 ] -     (1): BatchNorm1d(128, eps=1e-05, momentum=0.1, affine=True, track_running_stats=True)
[ INFO : 2019-12-23 14:00:57,054 ] -     (2): ReLU()
[ INFO : 2019-12-23 14:00:57,054 ] -     (3): Linear(in_features=128, out_features=256, bias=True)
[ INFO : 2019-12-23 14:00:57,054 ] -     (4): BatchNorm1d(256, eps=1e-05, momentum=0.1, affine=True, track_running_stats=True)
[ INFO : 2019-12-23 14:00:57,054 ] -     (5): ReLU()
[ INFO : 2019-12-23 14:00:57,054 ] -     (6): Linear(in_features=256, out_features=512, bias=True)
[ INFO : 2019-12-23 14:00:57,054 ] -     (7): BatchNorm1d(512, eps=1e-05, momentum=0.1, affine=True, track_running_stats=True)
[ INFO : 2019-12-23 14:00:57,054 ] -     (8): ReLU()
[ INFO : 2019-12-23 14:00:57,055 ] -     (9): Linear(in_features=512, out_features=256, bias=True)
[ INFO : 2019-12-23 14:00:57,055 ] -     (10): BatchNorm1d(256, eps=1e-05, momentum=0.1, affine=True, track_running_stats=True)
[ INFO : 2019-12-23 14:00:57,055 ] -     (11): ReLU()
[ INFO : 2019-12-23 14:00:57,055 ] -     (12): Linear(in_features=256, out_features=128, bias=True)
[ INFO : 2019-12-23 14:00:57,055 ] -     (13): BatchNorm1d(128, eps=1e-05, momentum=0.1, affine=True, track_running_stats=True)
[ INFO : 2019-12-23 14:00:57,055 ] -     (14): ReLU()
[ INFO : 2019-12-23 14:00:57,055 ] -     (15): Linear(in_features=128, out_features=64, bias=True)
[ INFO : 2019-12-23 14:00:57,055 ] -     (16): BatchNorm1d(64, eps=1e-05, momentum=0.1, affine=True, track_running_stats=True)
[ INFO : 2019-12-23 14:00:57,055 ] -     (17): ReLU()
[ INFO : 2019-12-23 14:00:57,055 ] -     (18): Linear(in_features=64, out_features=51, bias=True)
[ INFO : 2019-12-23 14:00:57,055 ] -   )
[ INFO : 2019-12-23 14:00:57,055 ] - )
> /mnt/lustre/sjtu/home/zkz01/leinao/runners/train_dnn.py(97)create_trainer()
-> if fix_encoder == True:
(Pdb) 
Traceback (most recent call last):
  File "runners/train_dnn.py", line 256, in <module>
    fire.Fire(main)
  File "/mnt/lustre/sjtu/home/zkz01/anaconda3/envs/pytorch/lib/python3.7/site-packages/fire/core.py", line 138, in Fire
…
